Test1_official_demo/Lenet.pth (torch, 487471 bytes, 10 tensors)

conv1.weight f4 [16, 3, 5, 5]
-0.08170529 -0.042206436 0.009649653 -0.0323185 0.04827492 0.046641514 0.05665963 0.005699068
0.05203965 0.057865933 -0.05776138 -0.026606873 0.06489517 0.098267324 0.079803884 -0.03929656
0.04621817 0.01636653 -0.0001192259 -0.029592266 -0.03680069 0.09894653 -0.051402107 -0.042546555
0.061629243 -0.034674227 -0.04191673 -0.08061922 -0.056424618 -0.06543941 0.03128497 -0.10449002
0.03585108 0.033828948 -0.09941865 0.052132547 0.007985125 0.051870465 0.020715786 0.015093727
-0.030103771 0.029354444 0.112663165 0.06640735 0.04006013 0.11009182 0.016554074 0.066921584
-0.08134495 0.024394019 -0.056558587 -0.020263854 -0.031318877 0.013913621 0.00014500544 0.03958603
-0.027493613 -0.088022575 0.0106205 -0.0205608 -0.15878658 -0.02196583 0.017100647 0.15038133
0.14132355 -0.085593 -0.048106708 0.05148363 0.01211386 0.08046617 0.025691466 0.055116303
0.17358786 0.10158873 0.026426198 -0.108620785 0.015111815 0.022684047 0.061768077 0.010485612
0.056479596 0.19531333 0.28264138 0.20176327 0.13135591 0.06504446 0.24370904 0.18429595
0.10094836 0.17574511 -0.08668748 -0.067459285 -0.034443583 0.023892246 -0.048031863 0.0028612309
0.045882672 -0.1211213 -0.081887454 0.053844407 -0.17488375 0.008436147 -0.042877354 0.019344151
0.13665296 -0.10778155 -0.1394776 -0.12291487 -0.107534215 0.02856516 0.084257446 -0.027508164
-0.14665663 -0.0869048 -0.17858037 0.09686715 0.03528755 0.0050630076 -0.15623838 -0.19130044
0.004548699 -0.13453236 -0.0913105 -0.036567107 -0.09425946 -0.08759588 -0.08598515 -0.033907082
0.004307946 -0.06442037 0.048336387 -0.11602205 -0.068930745 0.029586293 -0.077653676 0.13443007
0.011718483 0.10569544 -0.030763943 0.04885133 0.055142272 -0.052482884 -0.10433061 -0.03249303
-0.12791482 0.1318569 0.15286644 0.028972195 0.11504283 -0.06715808 -0.030512525 0.028890166
-0.17838576 -0.09099868 -0.19469205 -0.16785838 -0.016454091 -0.12859708 -0.15397137 -0.13560484
-0.08380628 -0.060618393 -0.18556406 -0.11177911 -0.03622616 0.012298535 0.09227192 0.05003377
0.09031697 0.08254513 0.19200668 0.14761506 0.15030834 0.17949101 0.16113077 0.035888128
0.012243259 0.069625705 0.07111759 0.022496743 0.13516492 0.10981363 0.12640597 0.1783871
0.17096819 -0.14844614 -0.07789162 -0.15271862 -0.043773662 -0.047740594 0.02085316 -0.11305176
-0.017108833 -0.070559956 -0.0349568 0.014961648 0.052774414 -0.04777488 -0.004634339 -0.12544088
0.07204085 -0.079918414 0.06270174 0.1402588 0.04871453 0.16310212 0.076111116 0.05354116
0.20670798 0.19321254 -0.021048358 0.021153023 0.0292128 0.08868005 -0.12019179 0.07746971
-0.019130373 -0.11790647 -0.040870823 -0.027608173 -0.13932656 -0.08136241 -0.027113417 -0.040367823
-0.028019847 -0.006030519 0.15344094 0.11641791 0.06933714 -0.09651333 -0.08125992 -0.11630493
-0.00499611 0.045660563 0.02311508 -0.11539396 0.068883575 0.0076949103 0.05801149 0.05260986
0.12772822 -0.056620575 0.07227808 -0.12062616 0.007614619 -0.034916844 -0.13111514 -0.062395874
0.036346376 0.00018328804 0.097129054 0.124053344 0.003584479 -0.07636965 -0.13424177 0.06603162
00000000: 1a55 a7bd a8e0 2cbd 9419 1e3c 6760 04bd
00000010: ecbb 453d 2c0b 3f3d ee13 683d 3fbf ba3b
00000020: 8727 553d d404 6d3d 3297 6cbd a8f6 d9bc
00000030: c2e7 843d 6140 c93d 3870 a33d 6ef5 20bd
00000040: 444f 3d3d 1a13 863c eb08 fab8 7b6b f2bc
00000050: 52bc 16bd 7aa4 ca3d 048b 52bd 4c45 2ebd
00000060: f26e 7c3d 9006 0ebd e1b0 2bbd b11b a5bd
00000070: 801d 67bd 1905 86bd ab24 003d ddfe d5bd
00000080: 95d8 123d 3990 0a3d 019c cbbd f088 553d
00000090: 0bd4 023c 2076 543d 27b4 a93c ae4b 773c
000000a0: 2f9c f6bc bb78 f03c f2bb e63d 9400 883d
000000b0: 1716 243d d277 e13d 699c 873c 2f0e 893d
000000c0: 2e98 a6bd f7d5 c73c faa9 67bd 6200 a6bc
000000d0: 3948 00bd f5f5 633c 9a0c 1839 f624 223d
000000e0: 493a e1bc 2e45 b4bd 9b01 2e3c 1f6f a8bc
000000f0: f398 22be aff1 b3bc a816 8c3c 90fd 193e
00000100: 1fb7 103e 624b afbd 8a0b 45bd 80e0 523d
00000110: 3679 463c 73cb a43d e976 d23c a2c1 613d
00000120: 04c1 313e c10d d03d c17b d83c 9374 debd
00000130: 8c97 773c e5d3 b93c 8600 7d3d d8cb 2b3c
00000140: 2657 673d 3800 483e 5fb6 903e 089b 4e3e
00000150: 2a82 063e 0836 853d dd8e 793e 14b8 3c3e
00000160: 04be ce3d 87f6 333e 3589 b1bd 1828 8abd
00000170: b714 0dbd acb9 c33c 0fbd 44bd 7d83 3b3b
00000180: 78ef 3b3d 720e f8bd 9cb4 a7bd f48b 5c3d
00000190: ba14 33be c437 0a3c 2aa0 2fbd a077 9e3c
000001a0: c1ee 0b3e 93bc dcbd 37d3 0ebe cbba fbbd
000001b0: e63a dcbd 7c01 ea3c 2b8f ac3d cd58 e1bc
000001c0: 282d 16be 25fb b1bd c6dd 36be 4962 c63d
000001d0: ae89 103d 96e7 a53b f4fc 1fbe 43e4 43be
000001e0: 410d 953b dac2 09be 0001 bbbd 64c7 15bd
000001f0: 1b0b c1bd 7865 b3bd fb18 b0bd 27e2 0abd
00000200: ac29 8d3b d4ee 83bd 60fc 453d f89c edbd
00000210: 902b 8dbd f45e f23c e408 9fbd 09a8 093e
00000220: e1fe 3f3c da76 d83d aa04 fcbc 5518 483d
00000230: dddc 613d 4bf8 56bd 49ab d5bd 6917 05bd
00000240: 1afc 02be 7f05 073e 0589 1c3e 1957 ed3c
00000250: 939b eb3d 2d8a 89bd 67f5 f9bc 12ab ec3c
00000260: c2aa 36be 845d babd 5a5d 47be 11e3 2bbe
00000270: bbca 86bc f4ae 03be acaa 1dbe ffdb 0abe
00000280: a0a2 abbd fe4a 78bd 8104 3ebe 72ec e4bd
00000290: e261 14bd cb7f 493c 0ff9 bc3d 36f0 4c3d
000002a0: 1bf8 b83d 6c0d a93d 669d 443e 6728 173e
000002b0: 6eea 193e 7ecc 373e 77ff 243e 6eff 123d
000002c0: f397 483c ec97 8e3d 19a6 913d 174b b83c
000002d0: ac68 0a3e f8e5 e03d 9170 013e 1cab 363e
000002e0: 4912 2f3e 4402 18be a485 9fbd 4562 1cbe
000002f0: 034c 33bd a48b 43bd 3fd4 aa3c ae87 e7bd
00000300: d327 8cbc bd81 90bd dd2e 0fbd b321 753c
00000310: fc29 583d 98af 43bd a7db 97bb 9373 00be
00000320: 278a 933d 44ac a3bd c569 803d 01a0 0f3e
00000330: e388 473d 3e04 273e 25e0 9b3d fa4d 5b3d
00000340: 42ab 533e 82d9 453e 9b6d acbc 1b49 ad3c
00000350: af4f ef3c e39d b53d 1d27 f6bd 70a8 9e3d
00000360: 4db7 9cbc f378 f1bd 2a68 27bd 892a e2bc
00000370: 9fab 0ebe 56a1 a6bd f51c debc bb58 25bd
00000380: e189 e5bc a99b c5bb 9f1f 1d3e 836c ee3d
00000390: a100 8e3d c8a8 c5bd 9a6b a6bd 4731 eebd
000003a0: 69b6 a3bb 9206 3b3d d65b bd3c ab53 ecbd
000003b0: d512 8d3d 9625 fc3b 759d 6d3d 707d 573d
000003c0: 30cb 023e faea 67bd 8806 943d d90a f7bd
000003d0: 0e84 f93b f704 0fbd 0c43 06be d192 7fbd
000003e0: f0df 143d 0231 4039 99eb c63d ae0f fe3d
000003f0: 94e9 6a3b b167 9cbd ad76 09be 963b 873d

conv1.bias f4 [16]
0.20337425 -0.2693345 0.017267505 -0.14748248 -0.07152422 -0.24578315 -0.13261695 0.0446436
-0.10536595 -0.08649406 0.14769152 -0.1436191 -0.14637779 -0.07983544 -0.057891935 -0.05418454
00000000: 5741 503e 36e6 89be 9574 8d3c a605 17be
00000010: 4a7b 92bd 94ae 7bbe bdcc 07be 35dc 363d
00000020: 1aca d7bd cc23 b1bd 723c 173e e310 13be
00000030: 0fe4 15be c380 a3bd 1820 6dbd 9cf0 5dbd

conv2.weight f4 [32, 16, 5, 5]
0.05272422 0.009788565 -0.10615444 -0.12944469 -0.12096025 0.028796693 0.060877282 -0.009159661
-0.08242841 -0.11363458 0.043767847 0.09265156 0.071795665 -0.02432561 0.03756819 0.009327088
0.0150096165 0.052723616 0.017733837 0.078115754 -0.03817861 -0.026411284 -0.054526567 -0.01037158
-0.037856676 0.13045661 0.042926036 0.16732034 0.17042883 0.061794262 -0.042124014 -0.04234232
0.06466256 0.1110823 0.0674018 -0.06984666 0.023483003 -0.04347737 0.06477997 0.02291556
-0.08066422 -0.0150155015 -0.077131085 -0.084218346 0.054717608 -0.05910543 -0.0316557 -0.048178315
-0.08123416 -0.032200135 0.005441601 0.011050777 0.13042554 0.033171125 -0.08806807 0.079897515
-0.011606068 -0.055738576 0.010518232 -0.051978596 0.036184378 0.039839067 -0.05179363 -0.07171182
-0.07975349 0.0016626839 0.022003865 0.02875758 -0.058434624 -0.0935813 0.08313492 0.0692848
0.10755164 0.10093266 0.023263123 -0.05304478 0.1088133 -0.02950111 0.04829579 0.13018572
0.02699181 -0.022682287 -0.09751807 -0.01850937 0.14206561 -0.11957549 -0.08555772 -0.049087536
-0.011003325 0.12859741 -0.06422397 -0.03080649 0.028185528 0.047809333 0.029301813 -0.08389529
0.023913834 0.045749784 -0.055103768 -0.0048780204 -0.044564582 0.14619188 0.115479484 0.07883803
-0.12522145 -0.12673837 0.0486895 -0.04324458 -0.07281839 -0.1383868 -0.21289696 -0.16189817
-0.23840943 -0.17172383 -0.18357167 -0.2287196 -0.13535756 -0.089764476 -0.12293599 -0.2229363
-0.09896734 -0.07946002 0.043360088 0.046215292 -0.086361974 0.027943673 0.1546972 0.1897238
-0.15340771 -0.18497297 -0.11407437 0.02267241 0.11337337 0.009770972 0.028180964 0.055142805
0.1248076 -0.020109866 -0.07383408 -0.010592257 0.0463667 0.008741506 -0.06099405 -0.12781996
-0.09344453 0.13541542 0.12910703 0.08804646 -0.06768398 -0.049740873 0.043345887 0.0523182
-0.04194613 -0.03900968 -0.03342204 0.039103173 0.09280185 -0.04027142 -0.18281217 -0.09873309
-0.10328798 0.016638888 0.044622183 -0.16180097 -0.19537812 0.0022989232 -0.015741687 0.05963414
-0.107198626 -0.20471853 0.01660183 0.08558388 0.057842687 -0.077617556 -0.17236929 -0.024711864
0.09519023 0.061312 -0.03116072 -0.07468264 -0.07253544 0.059796482 0.10628428 0.0875693
-0.042624477 -0.10005879 -0.044321515 0.07986386 0.08930902 0.028669091 -0.07969511 -0.026113402
-0.019488325 0.08549093 0.088595755 -0.022192063 -0.024637297 -0.031229135 -0.009775473 0.09107553
-0.18175511 -0.14004515 0.002012167 0.22139907 0.19727412 -0.1937098 -0.11384131 -0.038776837
0.26954603 0.25382754 -0.09882408 -0.16741465 -0.058295876 0.18847854 0.20080058 -0.13844165
-0.092568845 -0.101270914 0.009961477 0.047157656 -0.18752639 -0.103936 -0.080831036 -0.02698832
0.0025588505 -0.0784585 0.12406577 0.17426598 0.08688055 -0.043347735 -0.25683102 -0.10330166
0.12873752 0.20594649 0.13372567 -0.24753004 -0.23673677 0.03911229 0.16086832 0.16653843
-0.1944216 -0.21496531 -0.01101663 0.10074368 0.075280145 -0.120647445 -0.15031597 -0.012198824
-0.02852319 0.10392341 0.08861126 -0.012647908 -0.12606521 -0.050996955 -0.020532347 0.078716144
00000000: 5af5 573d 3860 203c 8067 d9bd 268d 04be
00000010: 02ba f7bd 0be7 eb3c 755a 793d 6712 16bc
00000020: 3ad0 a8bd 3fb9 e8bd ea45 333d 1ac0 bd3d
00000030: 9b09 933d 8046 c7bc 1ae1 193d a4d0 183c
00000040: e5ea 753c b8f4 573d 8d46 913c 27fb 9f3d
00000050: 2d61 1cbd 7a5c d8bc 4057 5fbd 8fed 29bc
00000060: 9a0f 1bbd 6b96 053e 36d3 2f3d 0656 2b3e
00000070: e584 2e3e fb1b 7d3d 3b8a 2cbd 246f 2dbd
00000080: ce6d 843d 1e7f e33d f409 8a3d c40b 8fbd
00000090: 6d5f c03c 5415 32bd 5cab 843d 6ab9 bb3c
000000a0: 4833 a5bd 9403 76bc e7f6 9dbd ab7a acbd
000000b0: 921f 603d 8918 72bd 68a9 01bd a056 45bd
000000c0: 185e a6bd 4ae4 03bd 754f b23b 510e 353c
000000d0: 468e 053e 72de 073d 085d b4bd 4fa1 a33d
000000e0: 6127 3ebc 224e 64bd aa54 2c3c 82e7 54bd
000000f0: 1236 143d 4a2e 233d 8f25 54bd a6dd 92bd
00000100: cc55 a3bd 6aee d93a 7341 b43c 0495 eb3c
00000110: 2559 6fbd 8da7 bfbd a442 aa3d 30e5 8d3d
00000120: 0944 dc3d c8b5 ce3d 4e92 be3c 7c45 59bd
00000130: 82d9 de3d 50ac f1bc ced1 453d 684f 053e
00000140: ee1d dd3c 34d0 b9bc 8eb7 c7bd f6a0 97bc
00000150: a679 113e ffe3 f4bd e338 afbd 0310 49bd
00000160: 4a47 34bc 0aaf 033e db87 83bd e45d fcbc
00000170: 56e5 e63c b8d3 433d 5b0a f03c 4bd1 abbd
00000180: f2e6 c33c 2064 3b3d 7db4 61bd cdd7 9fbb
00000190: 5a89 36bd 53b3 153e 8280 ec3d d575 a13d
000001a0: 0d3a 00be b4c7 01be a46e 473d 3b21 31bd
000001b0: cf21 95bd 45b5 0dbe a901 5abe a2c8 25be
000001c0: 9a21 74be 5fd8 2fbe 36fa 3bbe 7935 6abe
000001d0: 2c9b 0abe 70d6 b7bd ddc5 fbbd 6a49 64be
000001e0: 64af cabd efbb a2bd 599a 313d 3f4c 3d3d
000001f0: 8cde b0bd 21ea e43c f168 1e3e f546 423e
00000200: e916 1dbe 8e69 3dbe d39f e9bd 7dbb b93c
00000210: 4c30 e83d 6d16 203c c4db e63c 6cdd 613d
00000220: 219b ff3d 72bd a4bc 5236 97bd 258b 2dbc
00000230: 02eb 3d3d 8938 0f3c e6d4 79bd 3ce3 02be
00000240: d95f bfbd 57aa 0a3e a234 043e b451 b43d
00000250: e69d 8abd 16bd 4bbd 758b 313d 9c4b 563d
00000260: b5cf 2bbd 9dc8 1fbd 8de5 08bd a62a 203d
00000270: e50e be3d a5f3 24bd 1d33 3bbe 9334 cabd
00000280: a688 d3bd 474e 883c c0c5 363d 27af 25be
00000290: 3411 48be 88a9 163b b6f4 80bc ee42 743d
000002a0: f48a dbbd bca1 51be 9000 883c 9a46 af3d
000002b0: 74ec 6c3d f4f5 9ebd 9381 30be 8970 cabc
000002c0: 18f3 c23d 4b22 7b3d c444 ffbc 36f3 98bd
000002d0: 768d 94bd 28ed 743d 93ab d93d 8857 b33d
000002e0: 0197 2ebd 9feb ccbd 7a8a 35bd aa8f a33d
000002f0: a6e7 b63d 71db ea3c 3137 a3bd c6eb d5bc
00000300: fba5 9fbc de15 af3d b171 b53d 21cc b5bc
00000310: 28d4 c9bc 3ed4 ffbc 4e29 20bc cf85 ba3d
00000320: 031e 3abe ff67 0fbe 8fde 033b 70b6 623e
00000330: 3a02 4a3e dd5b 46be a225 e9bd 76d4 1ebd
00000340: f001 8a3e aff5 813e 4764 cabd bf6e 2bbe
00000350: a8c7 6ebd 8500 413e ab9e 4d3e a6c3 0dbe
00000360: bc94 bdbd 2067 cfbd 7635 233c 6328 413d
00000370: eb06 40be 66dc d4bd be8a a5bd 9c16 ddbc
00000380: 63b2 273b daae a0bd 3216 fe3d c872 323e
00000390: 6eee b13d 658d 31bd 5b7f 83be d28f d3bd
000003a0: c5d3 033e a3e3 523e 62ef 083e 8478 7dbe
000003b0: 206b 72be 3534 203d aaba 243e 0d89 2a3e
000003c0: 7516 47be de1f 5cbe 187f 34bc b452 ce3d
000003d0: 7a2c 9a3d 0216 f7bd 6eec 19be 94dd 47bc
000003e0: 77a9 e9bc ccd5 d43d d279 b53d 2c39 4fbc
000003f0: 3d17 01be 2fe2 50bd 7433 a8bc ee35 a13d

conv2.bias f4 [32]
0.1800229 0.3138385 0.41386715 0.19457659 -0.25659788 0.09593469 0.095282644 0.121068515
0.008273025 -0.16506067 0.16811511 0.19602893 0.034397032 0.3481085 -0.11059504 0.33789787
-0.17096066 0.23128888 0.002058556 -0.009310416 0.034709517 0.17952871 0.0129959555 0.19898959
-0.001080022 -0.13788629 0.13696125 -0.04295153 0.04362552 -0.16596021 0.25225812 0.41934854
00000000: ec57 383e 71af a03e 65e6 d33e 163f 473e
00000010: cc60 83be 6879 c43d 8c23 c33d c5f2 f73d
00000020: 958b 073c aa05 29be 5e26 2c3e cfbb 483e
00000030: e7e3 0c3d 473b b23e a77f e2bd f300 ad3e
00000040: 5010 2fbe fed6 6c3e d7e8 063b b78a 18bc
00000050: 912b 0e3d 60d6 373e fdec 543c edc3 4b3e
00000060: 868f 8dba 1032 0dbe 923f 0c3e f2ed 2fbd
00000070: acb0 323d 79f1 29be fa27 813e dab4 d63e

fc1.weight f4 [120, 800]
-0.11091786 -0.09383058 0.014364007 0.056404762 -0.18045564 -0.011098332 0.02894724 -0.10135354
-0.0050759083 0.082829736 -0.05413317 -0.030529352 -0.01934561 -0.13007794 0.06511077 -0.076957405
-0.10498932 -0.15892422 -0.27445325 0.03196062 -0.076522015 0.006295674 -0.17230734 -0.22018053
0.053584732 0.14121182 -0.087738276 -0.13356912 -0.1579642 -0.2001941 0.03592391 0.044737086
-0.1979158 -0.22399522 -0.12851954 -0.085564904 -0.14340729 -0.16347203 -0.15342674 0.03937907
-0.06425975 0.075241625 0.16339916 0.10362045 0.16597062 -0.09134283 0.073671415 -0.055380404
-0.00206488 0.14679864 -0.050267193 -0.07133104 0.0177741 -0.064404376 0.010274851 -0.13570169
-0.13068715 -0.114810534 -0.16116676 0.10684566 -0.10604124 -0.15575549 -0.19365801 -0.20068991
0.18336876 -0.0025192227 0.072265476 -0.054276425 -0.017865136 0.11693618 -0.00021528473 0.05971183
0.11618102 0.12328353 0.20440082 0.11254781 0.10019529 0.13405971 0.06733037 -5.9025595e-05
-0.0041159824 0.09099914 0.09645149 0.12511885 0.053156704 -0.03800242 -0.073939264 -0.026593952
-0.11177063 -0.15313096 -0.032251224 -0.14401461 -0.11444054 -0.18096215 -0.15773791 -0.06136012
-0.010191431 -0.06432341 -0.12918216 -0.119861856 -0.07435307 -0.06800191 -0.017668722 -0.0022860414
0.08562353 -0.10372678 -0.14966129 -0.13946201 -0.05587264 -0.060865834 -0.23176195 -0.23447596
-0.087125376 -0.24882074 -0.08491543 -0.1861958 -0.18621522 -0.1797431 -0.23870514 -0.080393314
-0.1985944 -0.10376008 -0.079330094 -0.101263516 -0.12547956 -0.17919564 -0.06335595 -0.02937067
-0.06680713 -0.007465609 -0.05242456 -0.003038752 0.037200365 -0.0114723705 -0.103249155 -0.20568612
-0.061285082 -0.111498855 -0.15951288 -0.16416697 -0.2594051 -0.2207148 -0.07935877 -0.1261689
-0.12852977 -0.16826527 -0.19879815 -0.13806468 -0.1346769 -0.22244747 -0.044677787 -0.21157497
-0.15561797 -0.028550861 -0.031852543 0.046907697 -0.040112555 -0.08404957 -0.075570844 0.003074583
-0.039201584 0.13715748 0.111136764 0.092808366 -0.029766234 -0.037243087 -0.020065533 -0.016717292
0.052028894 -0.041654926 -0.12061258 -0.034548778 0.007135533 0.113204926 0.10342691 -0.08656441
-0.05542834 -0.023631237 0.022725644 0.056761805 -0.10503436 -0.083924964 -0.10344811 -0.16043213
-0.06787803 -0.019287756 -0.04392971 -0.07803256 -0.18892713 -0.16791806 0.17982724 0.060262553
-0.028692694 -0.15412435 -0.11711095 0.08771033 0.027745996 0.052111708 -0.010725458 -0.12228969
0.040658787 0.03303628 0.0029937986 -0.0013555238 0.062909625 -0.12859924 -0.07657016 0.04403159
-0.0021876276 -0.02072231 -0.039400656 -0.03320064 0.10104723 0.051559363 0.100892715 -0.07193452
-0.04158079 -0.022453602 3.174044e-05 0.17138126 -0.17455594 0.01685785 0.028855506 0.08000574
0.08155905 -0.011825622 0.046261862 0.066286266 0.10821523 0.12685962 -0.059240706 0.13735555
0.17667495 0.19931318 0.1766794 -0.090691134 0.121053055 0.1372314 0.0895091 -0.023549393
-0.06480397 -0.085044056 -0.07298349 -0.10521985 -0.10688323 -0.058899708 -0.14163238 -0.115270026
-0.10797393 -0.1382641 0.08091933 -0.008352328 -0.07938031 -0.092561 -0.007798429 0.03295271
00000000: e728 e3bd 3f2a c0bd 0357 6b3c ae08 673d
00000010: 5dc9 38be c7d5 35bc c322 ed3c 7292 cfbd
00000020: ce53 a6bb a3a2 a93d beba 5dbd b118 fabc
00000030: af7a 9ebc 2733 05be cc58 853d d89b 9dbd
00000040: a404 d7bd 08bd 22be 2385 8cbe 24e9 023d
00000050: 93b7 9cbd f14b ce3b 5671 30be 0177 61be
00000060: aa7b 5b3d d599 103e 20b0 b3bd 58c6 08be
00000070: 5ec1 21be afff 4cbe f324 133d 3c3e 373d
00000080: 71aa 4abe 015f 65be a09a 03be a73c afbd
00000090: 5cd9 12be 3665 27be e61b 1dbe f34b 213d
000000a0: 9e9a 83bd 4818 9a3d 1c52 273e f536 d43d
000000b0: 34f4 293e f311 bbbd 0ae1 963d 90d6 62bd
000000c0: f052 07bb 6252 163e f9e4 4dbd 0216 92bd
000000d0: fd9a 913c 71e6 83bd d957 283c 62f5 0abe
000000e0: dad2 05be c921 ebbd e608 25be e6d1 da3d
000000f0: 262c d9bd 5e7e 1fbe 494e 46be a881 4dbe
00000100: 05c5 3b3e 8b19 25bb ecff 933d f550 5ebd
00000110: e859 92bc 3c7c ef3d 0ebe 61b9 6494 743d
00000120: 51f0 ed3d 137c fc3d 734e 513e 777f e63d
00000130: 3033 cd3d f346 093e 81e4 893d 4092 77b8
00000140: 5ddf 86bb c25d ba3d 5c88 c53d 281f 003e
00000150: d8ba 593d 6da8 1bbd 786d 97bd 8fdb d9bc
00000160: 00e8 e4bd 5dce 1cbe dc19 04bd 9178 13be
00000170: cd5f eabd 244e 39be 0c86 21be c054 7bbd
00000180: f6f9 26bc febb 83bd 5448 04be 227a f5bd
00000190: 6c46 98bd 9644 8bbd ffbd 90bc 69d1 15bb
000001a0: 645b af3d b56e d4bd cf40 19be 21cf 0ebe
000001b0: b6da 64bd 744e 79bd 0153 6dbe 771a 70be
000001c0: ca6e b2bd ddca 7ebe 24e8 adbd 1daa 3ebe
000001d0: 34af 3ebe 930e 38be 1f6f 74be 40a5 a4bd
000001e0: 555c 4bbe 2a80 d4bd d177 a2bd 3f63 cfbd
000001f0: b77d 00be 107f 37be c4c0 81bd c29a f0bc
00000200: 2dd2 88bd 11a2 f4bb 23bb 56bd cc25 47bb
00000210: 695f 183d 9cf6 3bbc 4b74 d3bd 629f 52be
00000220: 1106 7bbd 8359 e4bd 5857 23be 631b 28be
00000230: bfd0 84be 0f03 62be da86 a2bd 6c32 01be
00000240: 4f9d 03be bb4d 2cbe be91 4bbe d460 0dbe
00000250: bee8 09be 45c9 63be 0e00 37bd 1ca7 58be
00000260: 515a 1fbe 7fe3 e9bc d077 02bd 4922 403d
00000270: 104d 24bd 2e22 acbd e3c4 9abd f17e 493b
00000280: d791 20bd 0373 0c3e ac9b e33d 5012 be3d
00000290: 51d8 f3bc 358c 18bd 7960 a4bc b4f2 88bc
000002a0: 401c 553d 5b9e 2abd ba03 f7bd 0583 0dbd
000002b0: 30d1 e93b fcd7 e73d 7dd1 d33d ae48 b1bd
000002c0: d408 63bd 4c96 c1bc 212b ba3c 117f 683d
000002d0: 411c d7bd dae0 abbd 9adc d3bd 5248 24be
000002e0: a303 8bbd 5b01 9ebc a4ef 33bd 89cf 9fbd
000002f0: 1d76 41be b6f2 2bbe a224 383e ded5 763d
00000300: f10c ebbc c6d2 1dbe ded7 efbd 79a1 b33d
00000310: 924b e33c 1673 553d d5b9 2fbc 0473 fabd
00000320: d489 263d 0d51 073d 9b33 443b d5ab b1ba
00000330: c3d6 803d 85af 03be d1d0 9cbd 785a 343d
00000340: 4d5e 0fbb d5c1 a9bc 9562 21bd 65fd 07bd
00000350: daf1 ce3d e92f 533d d7a0 ce3d 6852 93bd
00000360: 9e50 2abd 9ef0 b7bc 0a21 0538 927e 2f3e
00000370: cbbe 32be 7919 8a3c 6262 ec3c 0dda a33d
00000380: 6e08 a73d 41c0 41bc 147d 3d3d 18c1 873d
00000390: f29f dd3d 7de7 013e 62a6 72bd efa6 0c3e
000003a0: 47ea 343e c118 4c3e 72eb 343e 46bc b9bd
000003b0: aaea f73d 6386 0c3e 8c50 b73d a8ea c0bc
000003c0: f2b7 84bd 942b aebd 5e78 95bd 817d d7bd
000003d0: 98e5 dabd d240 71bd 1408 11be b112 ecbd
000003e0: 7021 ddbd 1b95 0dbe 09b9 a53d 34d8 08bc
000003f0: 2592 a2bd 9f90 bdbd f789 ffbb 6cf9 063d

fc1.bias f4 [120]
0.08817225 2.6672717e-05 -0.007826321 -0.025109176 0.0768872 -0.026934296 -0.046435244 0.2262384
0.12530363 0.003056208 -0.02027574 -0.011282668 0.21830115 0.14255679 -0.06436016 -0.1782202
0.2415393 -0.040009316 0.026228337 0.016468378 -0.14448886 0.09352178 0.0025435558 0.026074529
-0.005010186 0.15301843 -0.03587295 0.13352291 -0.058859162 0.23185748 -0.018488836 0.28358987
-0.04139555 -0.09879887 -0.004924587 0.19220057 0.39179766 -0.036176715 0.004894992 -0.048607565
-0.0386687 0.22289507 -0.016187321 -0.14231536 0.12355318 -0.11062495 0.17023149 -0.01792144
-0.030006662 -0.05556081 -0.0707137 0.037145447 0.015806792 -0.042884722 0.00080269994 0.07783643
0.1996461 0.022628061 -0.046713077 0.14887705 -0.02631271 -0.0053081335 -0.004020104 -0.008656696
0.079396896 0.36212808 -0.038484883 -0.11457243 -0.04655111 0.010339917 0.0042321673 0.015206939
-0.040167954 -0.021333393 0.04524338 -0.034304816 -0.012064144 -0.100565575 -0.051844895 0.00823613
0.20541468 -0.023050256 0.2645252 0.0021505023 -0.07836081 0.05300154 -0.007522639 -0.027148493
0.2123852 -0.056208044 0.012991916 -0.067587756 0.31347293 -0.045445092 -0.088652134 -0.0612047
-0.03866958 0.18268386 -0.1333039 0.033660565 0.17695779 0.17210169 -0.004541938 -0.044071365
-0.030386146 -0.04741582 0.29662016 -0.058085535 0.021108005 0.043801263 -0.0892915 -0.017862752
0.34228846 -0.03626941 0.025538977 -0.040997893 0.2796444 0.10736486 -0.0068108016 -0.003300481
00000000: a793 b43d 39bf df37 f839 00bc c2b1 cdbc
00000010: 0977 9d3d 50a5 dcbc e232 3ebd 0aab 673e
00000020: 984f 003e a94a 483b 4f19 a6bc f1da 38bc
00000030: 568a 5f3e 68fa 113e 42cf 83bd 5b7f 36be
00000040: 1456 773e cfe0 23bd cfdc d63c b1e8 863c
00000050: e3f4 13be 5988 bf3d c9b1 263b 409a d53c
00000060: 7d2c a4bb ddb0 1c3e 84ef 12bd 3bba 083e
00000070: 4e16 71bd 0c6c 6d3e e675 97bc b132 913e
00000080: 618e 29bd 1057 cabd 6e5e a1bb 3ad0 443e
00000090: b499 c83e 092e 14bd 2b66 a03b ba18 47bd
000000a0: 1263 1ebd 9b3e 643e 469b 84bc 1ebb 11be
000000b0: 7309 fd3d 558f e2bd 2a51 2e3e fccf 92bc
000000c0: 88d0 f5bc bb93 63bd 58d2 90bd d325 183d
000000d0: 3f7d 813c e4a7 2fbd 486c 523a b568 9f3d
000000e0: 0770 4c3e 7c5e b93c 3656 3fbd 3a73 183e
000000f0: c18d d7bc daef adbb 14bb 83bb d1d4 0dbc
00000100: d79a a23d da68 b93e 53a2 1dbd f3a4 eabd
00000110: 60ac 3ebd c168 293c fead 8a3b 8626 793c
00000120: 2787 24bd 5ec3 aebc 1f51 393d 3583 0cbd
00000130: b0a8 45bc 53f5 cdbd 505b 54bd d5f0 063c
00000140: 3a58 523e e4d3 bcbc d96f 873e 71ef 0c3b
00000150: a27b a0bd 2518 593d 7880 f6bb 8466 debc
00000160: 827b 593e 683a 66bd 0cdc 543c 736b 8abd
00000170: 867f a03e a224 3abd 408f b5bd c8b1 7abd
00000180: fe63 1ebd 7a11 3b3e d180 08be a9df 093d
00000190: 6c34 353e 6d3b 303e 8ad4 94bb 2d84 34bd
000001a0: 5eec f8bc 1737 42bd 99de 973e 19eb 6dbd
000001b0: b2ea ac3c f468 333d 76de b6bd e854 92bc
000001c0: 6f40 af3e 3c8f 14bd 1e37 d13c 68ed 27bd
000001d0: 8d2d 8f3e 1ce2 db3d 252d dfbb e24c 58bb

fc2.weight f4 [84, 120]
0.21011324 -0.12060988 0.0757223 -0.027855866 -0.01820548 -0.022024715 0.06707439 -0.04604163
0.0977417 -0.035617914 -0.007886404 0.062048048 -0.024733067 0.114296265 -0.036764015 -0.07763093
-0.051635433 -0.07727815 -0.045859456 0.02045029 -0.032570153 -0.07111575 -0.05694747 -0.16643438
0.0373598 -0.029611712 0.083448455 0.00964501 0.003914512 0.17831475 -0.14895612 -0.08569875
-0.0014692871 -0.13751782 -0.030153664 0.15898511 0.15371753 0.10834948 -0.0585201 -0.07275878
-0.04807603 0.012961977 0.022938723 -0.023365492 0.17964663 0.09992995 -0.094815046 0.0030237362
0.015230118 -0.018695373 -0.034013532 0.04771322 -0.067185715 -0.05158904 -0.060673118 0.015253485
0.051252343 0.088322595 -0.057769824 -0.027187414 0.022282517 -0.07521747 0.04677081 -0.07597021
0.11851241 0.016532525 0.0040760413 -0.086496234 -0.06697375 -0.10433456 -0.0056355144 -0.15081841
-0.026109546 0.087973244 0.09921908 0.25579607 -0.0026662862 -0.022060616 0.17299172 -0.00973361
0.037296396 -0.03699335 -0.010951471 0.10173724 -0.09046485 0.058728725 -0.103925064 -0.021787036
0.12269675 -0.02024024 0.01835858 0.088700406 -0.048674528 0.13317801 0.008736439 0.06998431
0.040513843 0.10440531 -0.0825982 0.109613925 0.12850046 0.044063482 0.09413573 0.04513924
0.05032655 -0.015181608 0.115315855 0.08956909 0.004222341 0.044751015 0.015591821 0.05773619
0.14026852 0.12405899 -0.08919836 0.01661745 0.17890285 -0.08882127 -0.020080116 0.048653077
-0.004842989 -0.042026 0.03567264 -0.06540203 -0.10548832 0.045239314 0.031700417 0.093891986
-0.049111627 -0.00033683432 -0.019249301 -0.061668012 -0.011773085 -0.13472871 -0.01171542 -0.0038930443
-0.17431615 0.060413495 -0.07506152 -0.052729603 -0.0055157365 -0.045966934 -0.020612236 -0.0876933
0.051168106 0.10017969 -0.050839785 -0.13983436 0.0038021917 -0.18319495 0.12303801 -0.07188084
-0.065665394 0.012781444 -0.041267455 -0.015934147 -0.23561166 0.08435085 -0.083405405 -0.06492268
0.06265876 -0.12985651 0.01697693 -0.038698066 -0.040406704 -0.06007627 0.014875398 0.07189998
-0.09101601 -0.0925658 -0.02880214 -0.03552031 -0.023998227 0.08283443 0.0077278498 -0.020886378
-0.033447914 0.06054916 -0.038048208 -0.087368235 -0.046481922 0.0810314 0.07265099 0.08064639
-0.07465704 0.04340271 -0.0028894923 0.025364919 -0.009606883 0.02303348 -0.070490934 -0.15256605
0.031452846 -0.0043034335 -0.0049059377 -0.12617914 -0.07187114 -0.14124726 0.07230189 0.006872687
0.084359966 -0.070266515 0.05264543 0.06389001 -0.113772385 -0.09760456 0.12208346 0.0907387
-0.008873518 0.00408715 0.0748376 -0.040657658 -0.0233455 0.028739817 0.03624261 -0.034933027
-0.025196759 -0.006739994 -0.04801345 0.09682045 -0.02979409 -0.0033020854 -0.08507205 -0.01634739
0.03684569 -0.07901285 -0.08055944 -0.060459103 0.04596106 0.007855076 -0.018661758 0.06514741
0.047791883 0.058174822 -0.059247494 0.013086272 0.031290006 -0.10999828 0.07163642 0.048426583
-0.009222949 -0.0048082033 0.122389436 0.03053446 0.0011268327 -0.008833159 0.012745904 0.0485522
-0.21699624 0.051751453 0.03880068 -0.091131076 -0.046442218 0.015899574 -0.09574671 -0.21311316
00000000: ed27 573e 5002 f7bd 4b14 9b3d fc31 e4bc
00000010: a923 95bc 2d6d b4bc 4c5e 893d 2696 3cbd
00000020: cd2c c83d 17e4 11bd fa35 01bc 1826 7e3d
00000030: 009d cabc 2914 ea3d dd95 16bd f7fc 9ebd
00000040: ad7f 53bd 0244 9ebd 20d7 3bbd 5e87 a73c
00000050: 4868 05bd 22a5 91bd c041 69bd c66d 2abe
00000060: 9706 193d 4394 f2bc 06e7 aa3d 1b06 1e3c
00000070: 4f45 803b 2498 363e f487 18be d482 afbd
00000080: 1895 c0ba 79d1 0cbe d104 f7bc fecc 223e
00000090: 2168 1d3e 55e6 dd3d c6b2 6fbd 8e02 95bd
000000a0: 5feb 44bd 795e 543c fde9 bb3c fd68 bfbc
000000b0: 49f5 373e 13a8 cc3d 642e c2bd e029 463b
000000c0: bf87 793c 0a27 99bc c651 0bbd f06e 433d
000000d0: aa98 89bd 074f 53bd 6084 78bd c1e9 793c
000000e0: faed 513d 7ae2 b43d 0da0 6cbd 24b8 debc
000000f0: d389 b63c 9e0b 9abd c092 3f3d 4596 9bbd
00000100: a2b6 f23d 386f 873c 5090 853b f024 b1bd
00000110: 8929 89bd 5cad d5bd 1faa b8bb 2470 1abe
00000120: b0e3 d5bc 512b b43d 5f33 cb3d b4f7 823e
00000130: dcbc 2ebb 77b8 b4bc be24 313e b879 1fbc
00000140: 1bc4 183d 5786 17bd cc6d 33bc 9d5b d03d
00000150: a345 b9bd 888d 703d aad6 d4bd ba7a b2bc
00000160: 6f48 fb3d dcce a5bc bc64 963c 8fa8 b53d
00000170: f15e 47bd d15f 083e 4823 0f3c ef53 8f3d
00000180: d8f1 253d 73d2 d53d 3f29 a9bd 447d e03d
00000190: a095 033e e97b 343d 3cca c03d ece3 383d
000001a0: 3623 4e3d 47bc 78bc b82a ec3d 0070 b73d
000001b0: 905b 8a3b d74c 373d d674 7f3c c87c 6c3d
000001c0: 8da2 0f3e a412 fe3d a1ad b6bd 5221 883c
000001d0: 4f32 373e ede7 b5bd 0e7f a4bc 7348 473d
000001e0: f0b1 9ebb 7423 2cbd 791d 123d 80f1 85bd
000001f0: 430a d8bd dc4c 393d 4cd8 013d 714a c03d
00000200: 4629 49bd 2399 b0b9 b6b0 9dbc 9997 7cbd
00000210: e6e3 40bc 53f6 09be 08f2 3fbc 7222 7fbb
00000220: ef7f 32be 2474 773d dbb9 99bd fffa 57bd
00000230: 5abd b4bb d347 3cbd feda a8bc 8b98 b3bd
00000240: a695 513d 022b cd3d 613d 50bd bd30 0fbe
00000250: 312e 793b 7597 3bbe 5afb fb3d 4336 93bd
00000260: 947b 86bd 4369 513c 1008 29bd 5488 82bc
00000270: 2f44 71be 23c0 ac3d 74d0 aabd 2ff6 84bd
00000280: 3c53 803d 1bf9 04be 3413 8b3c dd81 1ebd
00000290: 8081 25bd 8912 76bd f1b7 733c 4c40 933d
000002a0: 9a66 babd 2393 bdbd 77f2 ebbc bf7d 11bd
000002b0: ee97 c4bc 19a5 a93d e739 fd3b e919 abbc
000002c0: ae00 09bd 6502 783d 70d8 1bbd 1eee b2bd
000002d0: d463 3ebd caf3 a53d 0bca 943d ef29 a53d
000002e0: cae5 98bd 0ac7 313d a35d 3dbb 17ca cf3c
000002f0: 3066 1dbc b5b0 bc3c 8d5d 90bd 463a 1cbe
00000300: b3d4 003d d103 8dbb fdc1 a0bb 1b35 01be
00000310: 2d31 93bd 1fa3 10be 0313 943d 4734 e13b
00000320: ebc4 ac3d e4e7 8fbd bca2 573d c4d8 823d
00000330: 7f01 e9bd e6e4 c7bd e506 fa3d 36d5 b93d
00000340: 3b62 11bc 80ed 853b 7544 993d a588 26bd
00000350: 103f bfbc c46f eb3c 2273 143d ef15 0fbd
00000360: 6f69 cebc 2bdb dcbb c0a9 44bd cd49 c63d
00000370: bc12 f4bc cd67 58bb 413a aebd f6ea 85bc
00000380: 82eb 163d 7dd1 a1bd 59fc a4bd f7a3 77bd
00000390: aa41 3c3d 94b2 003c 8be0 98bc 016c 853d
000003a0: 6cc1 433d b948 6e3d 80ad 72bd ce67 563c
000003b0: f329 003d c746 e1bd 1eb6 923d f45a 463d
000003c0: da1b 17bc 228e 9dbb 50a7 fa3d 6723 fa3c
000003d0: 3bb2 933a f4b8 10bc 32d4 503c acde 463d
000003e0: 4334 5ebe 55f9 533d 76ed 1e3d eea2 babd
000003f0: 323a 3ebd d33f 823c da16 c4bd 563a 5abe

fc2.bias f4 [84]
0.2715587 -0.026109831 0.28525686 -0.09984264 -0.058967736 0.11378931 -0.09290453 -0.041820217
0.17697851 0.049044006 0.071561955 -0.06785916 0.34974158 -0.0067889295 0.065937005 0.18844499
0.27701068 -0.07323365 -0.050609235 -0.015590928 0.1740015 0.25992164 -0.060952876 0.1736554
0.10105467 0.027462687 -0.15133448 0.15665638 0.066590406 -0.046486516 -0.047554817 0.31718564
-0.11402734 -0.03862158 0.023079086 0.17178354 0.22881314 0.048694007 0.039219692 -0.029538922
0.29994658 0.06841442 0.14038284 0.063061744 0.3701654 -0.19995818 -0.05574154 -0.08593435
0.0745478 0.29718822 0.22357647 0.04693854 -0.09003585 0.05453154 -0.15148106 0.069718495
0.43838504 -0.1426261 -0.11027888 0.2532817 0.15390688 -0.10847501 -0.037851095 0.263424
0.0013307811 0.39284915 0.14697915 0.012754534 -0.045895487 0.015168728 -0.13071345 -0.0001466911
-0.03347815 0.011662498 0.064988345 0.095040254 0.115226395 0.2552703 -0.18302916 0.09934165
-0.09941852 -0.0013391816 0.29155627 -0.11995025
00000000: be09 8b3e 49e4 d5bc 300d 923e 4c7a ccbd
00000010: 2788 71bd 5f0a e93d bb44 bebd ad4b 2bbd
00000020: db39 353e 5ee2 483d 138f 923d bef9 8abd
00000030: 5411 b33e ab75 debb fb09 873d b9f7 403e
00000040: 58d4 8d3e 86fb 95bd a14b 4fbd 1771 7fbc
00000050: 732d 323e 7314 853e b9a9 79bd b9d2 313e
00000060: c0f5 ce3d 6ef9 e03c 6df7 1abe 886a 203e
00000070: 8d60 883d a568 3ebd d7c8 42bd 2866 a23e
00000080: 2b87 e9bd a931 1ebd 5a10 bd3c 06e8 2f3e
00000090: fe4d 6a3e 5e73 473d d4a4 203d 9cfb f1bc
000000a0: 9992 993e dc1c 8c3d 85c0 0f3e 8426 813d
000000b0: 5286 bd3e d6c1 4cbe 3e51 64bd 59fe afbd
000000c0: 84ac 983d 0e29 983e 3bf1 643e a042 403d
000000d0: b764 b8bd 775c 5f3d da1d 1bbe 92c8 8e3d
000000e0: 0174 e03e 940c 12be e5d9 e1bd 24ae 813e
000000f0: c499 1d3e 2528 debd c009 1bbd 83df 863e
00000100: 9b6d ae3a 8623 c93e b481 163e 65f8 503c
00000110: e8fc 3bbd 4286 783c bfd9 05be 18d1 19b9
00000120: 6220 09bd 1014 3f3c 9c18 853d 77a4 c23d
00000130: d1fb eb3d cab2 823e ff6b 3bbe a373 cb3d
00000140: f09b cbbd 7a87 afba dd46 953e 7aa8 f5bd

fc3.weight f4 [10, 84]
0.083572194 -0.071852416 -0.10074138 0.08664822 -0.0021655743 -0.032468498 0.17977943 0.11738452
-0.24023378 0.13247992 0.05071409 -0.073993064 -0.16047864 -0.07881014 -0.023170704 -0.036503226
-0.021446228 -0.16694482 -0.0292966 0.0132928565 0.04185524 -0.19970992 -0.0044937213 -0.039400753
-0.12032044 0.21009868 0.020569816 0.13574041 -0.1795523 -0.13296391 0.07991966 -0.24415608
0.07312682 -0.023772717 -0.016898923 0.03996893 0.13887413 0.029274747 -0.10597508 0.0060172407
0.007916843 -0.05093768 0.116784945 -0.11995952 -0.004078377 0.064848505 0.09946626 0.110103205
-0.10213211 0.051177617 -0.08775219 -0.11421954 0.019783434 -0.0014698249 -0.0069531277 0.0666532
-0.09010132 -0.08178948 -0.023775652 0.060254224 0.048731554 0.03495224 -0.15899348 -0.13960083
-0.07161519 -0.20046803 -0.045821622 -0.18708049 -0.09214734 -0.011007315 -0.010394154 -0.06651872
-0.07237514 -0.038316123 0.13522233 0.026770549 0.13039699 -0.084014304 -0.017670894 -0.1404617
-0.07001401 -0.07981386 -0.14430395 0.07468397 -0.22478446 -0.17468324 -0.16801298 -0.018010812
0.020234233 0.055939954 -0.28223997 0.16105954 0.088009536 0.19176094 0.040576965 -0.050475463
-0.21545152 0.07295256 0.030367885 0.014113214 -0.28472862 0.046252653 0.06142812 -0.014798899
-0.11371512 0.05645273 -0.15327337 -0.11664303 -0.13246867 -0.1591074 0.1719956 -0.036441997
-0.0393418 0.034418162 0.045642775 -0.18731399 0.049081977 -0.19119951 -0.0060432614 0.03742536
0.08140942 0.009482358 0.19839317 0.036692742 -0.2776629 -0.10760785 -0.08804199 -0.00032358308
-0.1917357 0.074242584 0.12298733 -0.07157638 -0.16803616 0.057577625 -0.2791374 0.14820947
-0.0113718975 0.08792141 -0.015011261 0.073872216 -0.20147395 0.07444459 -0.025099153 -0.14334668
-0.2062534 -0.061860453 -0.041514326 -0.016090909 -0.08591832 -0.18381464 0.10807559 0.2542404
-0.11959226 -0.05808201 -0.06429532 0.19367352 0.110659555 0.0960131 -0.12884991 -0.018359346
-0.12162203 0.0014109856 0.10278951 0.021360863 -0.060550097 0.026106952 -0.17565893 -0.17305808
-0.021783648 -0.067430995 0.032765046 -0.069064215 -0.03904568 0.011202145 0.05815736 -0.061354116
-0.032898784 0.000323382 -0.013864052 0.017522933 0.07407048 -0.04679504 0.097374156 0.06810687
0.059141867 -0.0958409 -0.1310473 0.015567073 0.054709453 -0.15921506 -0.06779656 0.050660077
0.11478517 -0.09986247 -0.13452946 -0.11598022 0.00022462053 0.017057532 -0.17576146 -0.053928018
-0.0060940087 0.055279344 0.054874793 0.02573486 -0.09533352 -0.1022847 0.014672068 0.08724887
0.10631536 0.1448145 -0.063358806 -0.16566905 0.12822737 0.13740993 -0.0760459 -0.031249518
0.03479637 -0.10040307 0.09094198 -0.0959727 0.054136835 0.03124179 -0.099934876 -0.12849143
-0.0013014426 0.058475126 0.15032193 0.046624705 0.1105972 0.11737477 -0.29974055 -0.20919782
-0.009095045 -0.06703747 -0.10798884 0.101189606 -0.09589734 -0.14731586 -0.03192856 0.089550965
-0.12096987 -0.08203325 0.14729321 -0.07953071 0.06924597 -0.0022379174 0.120286316 0.12500852
-0.05905708 0.0024047892 -0.056869842 0.0021144906 -0.0117442785 -0.203121 0.035225682 -0.106392145
00000000: e627 ab3d 5c27 93bd 7f51 cebd 9f74 b13d
00000010: 4fec 0dbb b0fd 04bd 1918 383e 4c67 f03d
00000020: d8ff 75be d1a8 073e 94b9 4f3d ad89 97bd
00000030: 8354 24be 3667 a1bd 7dd0 bdbc 6884 15bd
00000040: 00b0 afbc 95f3 2abe 6cff efbc 48ca 593c
00000050: 6670 2b3d c280 4cbe 1140 93bb af62 21bd
00000060: 906a f6bd 1c24 573e 0882 a83c 89ff 0a3e
00000070: 8fdc 37be b127 08be ebac a33d 0d04 7abe
00000080: 84c3 953d 00bf c2bc 9c6f 8abc 76b6 233d
00000090: 0535 0e3e 98d1 ef3c 7609 d9bd 462c c53b
000000a0: a5b5 013c 07a4 50bd f22c ef3d 56ad f5bd
000000b0: e8a3 85bb 4bcf 843d f7b4 cb3d ca7d e13d
000000c0: a42a d1bd 9f9f 513d 6cb7 b3bd efeb e9bd
000000d0: de10 a23c 24a7 c0ba 10d7 e3bb 7981 883d
000000e0: 0a87 b8bd 3e81 a7bd 28c5 c2bc 22cd 763d
000000f0: bd9a 473d 142a 0f3d 30cf 22be 85f3 0ebe
00000100: fcaa 92bd 7e47 4dbe 74af 3bbd 0792 3fbe
00000110: bfb7 bcbd 0658 34bc 3e4c 2abc f73a 88bd
00000120: 6b39 94bd 5ef1 1cbd b977 0a3e e94d db3c
00000130: ca86 053e b10f acbd 8dc2 90bc 31d5 0fbe
00000140: 8163 8fbd 7375 a3bd 6ac4 13be e9f3 983d
00000150: e62d 66be 2ae0 32be 980b 2cbe 698b 93bc
00000160: 43c2 a53c 4b21 653d c281 90be cbec 243e
00000170: 583e b43d fb5c 443e 0834 263d 5cbf 4ebd
00000180: 539f 5cbe 2768 953d 12c6 f83c 1c3b 673c
00000190: f3c7 91be 6c73 3d3d 0d9c 7b3d 1577 72bc
000001a0: 79e3 e8bd fa3a 673d b2f3 1cbe 8ae2 eebd
000001b0: dea5 07be 0ded 22be 9d1f 303e 3444 15bd
000001c0: de24 21bd 0ffa 0c3d ebf3 3a3d 3dcf 3fbe
000001d0: 2f0a 493d cec9 43be 8d06 c6bb 564b 193d
000001e0: fbb9 a63d e45b 1b3c 9427 4b3e 214b 163d
000001f0: d529 8ebe 8161 dcbd 5c4f b4bd 96a6 a9b9
00000200: 5d56 44be 7f0c 983d c8e0 fb3d a396 92bd
00000210: ac11 2cbe 84d6 6b3d 19eb 8ebe 39c4 173e
00000220: 3251 3abc 2410 b43d cbf1 75bc 514a 973d
00000230: 304f 4ebe 6876 983d bd9c cdbc 79c9 12be
00000240: 1734 53be 6361 7dbd ed0a 2abd 15d1 83bc
00000250: f2f5 afbd e839 3cbe bc56 dd3d cc2b 823e
00000260: c9ec f4bd 67e7 6dbd 44ad 83bd 5a52 463e
00000270: 7aa1 e23d 84a2 c43d 3bf1 03be 5766 96bc
00000280: f914 f9bd d2f0 b83a 4e83 d23d fafc ae3c
00000290: 6103 78bd 3fde d53c efdf 33be 2336 31be
000002a0: 9f73 b2bc 4319 8abd a434 063d 8a71 8dbd
000002b0: 5dee 1fbd 3489 373c 6936 6e3d 744e 7bbd
000002c0: e0c0 06bd 998b a939 0c26 63bc 418c 8f3c
000002d0: 44b2 973d 28ac 3fbd 1a6c c73d 9d7b 8b3d
000002e0: be3e 723d 3c48 c4bd 4331 06be 090d 7f3c
000002f0: 0517 603d 4609 23be ecd8 8abd f180 4f3d
00000300: 7d14 eb3d b284 ccbd 17c2 09be 0a87 edbd
00000310: 1d88 6b39 3dbc 8b3c d0fa 33be a0e3 5cbd
00000320: 40b0 c7bb 986c 623d 64c4 603d ead1 d23c
00000330: 383e c3bd a47a d1bd 1d63 703c 89af b23d
00000340: debb d93d 414a 143e 43c2 81bd 26a5 29be
00000350: 094e 033e 30b5 0c3e f4bd 9bbd fdfe ffbc
00000360: a386 0e3d 20a0 cdbd ca3f ba3d 568d c4bd
00000370: 96be 5d3d c8ee ff3c a8aa ccbd 4293 03be
00000380: 2b95 aaba 9d83 6f3d feed 193e 8cf9 3e3d
00000390: c980 e23d 2f62 f03d 9877 99be f437 56be
000003a0: 6203 15bc f14a 89bd 4129 ddbd 7f3c cf3d
000003b0: d365 c4bd f8d9 16be 86c7 02bd 7f66 b73d
000003c0: 0dbf f7bd 0c01 a8bd 08d4 163e ffe0 a2bd
000003d0: d5d0 8d3d 06aa 12bb ac58 f63d 3c02 003e
000003e0: d6e5 71bd ab99 1d3b 5af0 68bd 4493 0a3b
000003f0: 136b 40bc f4fe 4fbe ce48 103d 20e4 d9bd

fc3.bias f4 [10]
-0.1027118 -0.19701411 -0.038368315 0.049785353 0.1620344 -0.10771197 0.012310192 -0.050282452
0.1370358 -0.05344167
00000000: 905a d2bd 11be 49be 1828 1dbd baeb 4b3d
00000010: 59ec 253e 1898 dcbd b0b0 493c f9f4 4dbd
00000020: 1d53 0c3e a7e5 5abd
